app/src/main/assets/sgvad.tflite (tflite, 387688 bytes, 9 tensors)

Const_6 f4 [64]
0	0xbd4a43d2	-0.049381085
1	0xbd327871	-0.043571893
2	0xbcaebaa4	-0.021329232
3	0xbd2eabaa	-0.04264418
4	0x3d2c065e	0.04199826
5	0x3bfdabc8	0.007741425
6	0x3c99c968	0.018772796
7	0x3c583d78	0.013198249
8	0xbd54cbfa	-0.05195234
9	0x3c418640	0.011811793
10	0x3c23ff60	0.010009617
11	0xbd19bf4c	-0.03753595
12	0x3c326c10	0.010890022
13	0x3ca355e0	0.01993841
14	0xbd2259ee	-0.039636545
15	0x3ca9de58	0.020735905
16	0x3d1caab0	0.038248718
17	0xbd2c4cd3	-0.042065453
18	0x3ca28ce4	0.019842573
19	0x3d29f694	0.04149492
20	0xbcdef9bc	-0.027218692
21	0xbca2372c	-0.019801699
22	0x3d11fcee	0.035641603
23	0xbd4970ac	-0.049179718
24	0x3bc27bd0	0.0059351698
25	0x3d5355c8	0.05159548
26	0xbc1b49b4	-0.009478021
27	0xbd3d91b0	-0.046281517
28	0x3d16859c	0.036748514
29	0xbd025d1f	-0.03182709
30	0x3d244c4c	0.040111825
31	0x3c072074	0.0082474835
32	0xbc88e5a8	-0.016711071
33	0x3d322cb8	0.04349968
34	0x3d4d6cee	0.05015271
35	0xbc9e0230	-0.019288152
36	0xbc276aac	-0.010218304
37	0xbcfa4b21	-0.030553402
38	0x3cd7d89c	0.026348405
39	0x3c40e1c0	0.011772573
40	0xbd531c03	-0.051540386
41	0xbd41dd09	-0.047329936
42	0xbc3ee2d4	-0.01165076
43	0x3c6def00	0.014522314
44	0x3cf80c48	0.030279294
45	0x3d2d9ff6	0.04238888
46	0x3d43e620	0.047826886
47	0xbabb7c20	-0.001430396
48	0x3cf87a10	0.030331641
49	0xbae2c3c0	-0.001730077
50	0xbd07955c	-0.033101425
51	0x3cef1f94	0.029189862
52	0x3cd0db08	0.025495067
53	0x3bec2ba0	0.007207349
54	0xbd2b6808	-0.04184726
55	0x3d1494c8	0.0362747
56	0xbb5d3310	-0.003375236
57	0xbc73e3e8	-0.01488588
58	0x3cea96c4	0.028636344
59	0xbc4424b0	-0.011971638
60	0x3c877188	0.016533628
61	0xbd0a338e	-0.033740573
62	0x3a323cc0	0.00067992136
63	0xbd400db4	-0.04688807

Const_4 f4 [128]
0	0x3cbea89c	0.023273759
1	0x3cf1dd3a	0.029524434
2	0xbb0a2300	-0.002107799
3	0x3ceaf06a	0.028679091
4	0x3c171790	0.009221926
5	0x3b175d60	0.0023096427
6	0x3a156280	0.00056985766
7	0xbb5bf880	-0.0033564866
8	0x3ca0ca56	0.019627731
9	0x3cf4b13e	0.029869672
10	0x3cb237b0	0.02175507
11	0x3c778cd8	0.015109263
12	0x3c11959c	0.008885767
13	0x3cec521a	0.028847743
14	0x3c9e159a	0.01929741
15	0xbd0c6042	-0.034271486
16	0xbb200bb0	-0.0024421029
17	0x3d0a5781	0.033774856
18	0xbcde9ffa	-0.027175892
19	0xbcbb3116	-0.022850554
20	0x3c1b53e4	0.00948045
21	0xbbcfa9f4	-0.0063373987
22	0x3b88df20	0.004176989
23	0xbce907ba	-0.028446067
24	0xbd00b1b4	-0.03141947
25	0x3be4dd28	0.0069843717
26	0x3cd30d78	0.025763258
27	0x3cbd1b08	0.023084179
28	0x3ca8e43e	0.020616647
29	0xbce563a8	-0.028001621
30	0x3c384bf8	0.011248581
31	0x3c9b96a4	0.01899273
32	0xbc28d77c	-0.010305282
33	0xbc3d4680	-0.011552453
34	0xbcd4f6ed	-0.02599665
35	0x3c1c450c	0.009537946
36	0xbcd3e285	-0.025864849
37	0xbd019268	-0.031633765
38	0x3bc128a0	0.0058947355
39	0x3a565940	0.00081767514
40	0xbcf3a41c	-0.02974134
41	0xbc13f6d4	-0.009031016
42	0xbc22a402	-0.009926798
43	0xbce54306	-0.02798606
44	0x3ccae4f2	0.024767373
45	0xbce45258	-0.027871296
46	0x3c9bd084	0.019020326
47	0x3c868c58	0.016424343
48	0xbba71614	-0.0050990675
49	0xbcff3351	-0.0311524
50	0xbcc4e2dc	-0.024033956
51	0x3cdaf058	0.026725933
52	0xbc914f28	-0.01773794
53	0x3cbf67ae	0.023364868
54	0x3d0d4eb5	0.03449889
55	0xbd0db2ce	-0.03459435
56	0xbb52c470	-0.0032160543
57	0x3c029d54	0.00797208
58	0x3ca1a83c	0.01973354
59	0x3a7120c0	0.00091983005
60	0xbccee036	-0.025253396
61	0x3cbc0f4e	0.022956517
62	0xbcb3464f	-0.021884112
63	0xbc3f5f80	-0.011680484
64	0xbccf0f86	-0.025275957
65	0x3cb550b6	0.022133213
66	0x3b80d3e8	0.003931511
67	0x3cd22e24	0.025656767
68	0x3cac2eb2	0.02101836
69	0xbc6dcb86	-0.014513856
70	0xbd09f5f5	-0.03368183
71	0x3b7d3c40	0.0038640648
72	0x3ce26f2e	0.027640905
73	0xbcb1fd96	-0.021727365
74	0xbcfe7cfe	-0.03106546
75	0x3cb6cb82	0.022313837
76	0xbc303356	-0.010754427
77	0xbccaf9a0	-0.024777234
78	0x3cc8e01c	0.024520926
79	0xbce9cbc5	-0.028539548
80	0x3d046afd	0.032328594
81	0x3ce0dd16	0.027449172
82	0x3cb9e67c	0.022692911
83	0x3c9846e6	0.018588495
84	0x3b246430	0.002508413
85	0x3c5bc628	0.013413943
86	0xbcb35a58	-0.021893665
87	0x3b3a18c0	0.00283961
88	0x3cded1b8	0.027199611
89	0x3c63ab64	0.013895843
90	0xbd01af7e	-0.031661503
91	0xbb186be0	-0.0023257658
92	0x3b893288	0.004186932
93	0x3b9a0f78	0.004701551
94	0xbd0758d9	-0.033043716
95	0x3d044a73	0.032297563
96	0x3c618c88	0.013766415
97	0xbcea3065	-0.02858753
98	0xbbf4c744	-0.0074700434
99	0xbcafe72e	-0.02147254
100	0xbc21ee14	-0.009883422
101	0x3b9f6cf0	0.0048652813
102	0xbc4ddd56	-0.012564978
103	0x3c988ba4	0.018621273
104	0xbcb55f00	-0.022140026
105	0xba1c84c0	-0.0005970709
106	0xbc2dd7a2	-0.010610493
107	0x3ca1af52	0.01973692
108	0x3ca2ebdc	0.019887857
109	0x3cc77e00	0.024352074
110	0xbc425888	-0.011861928
111	0x3cfcf6b2	0.030879352
112	0xbbb90b90	-0.0056471303
113	0x3cd2803c	0.025695913
114	0x3cb46170	0.022019118
115	0x3cdbd410	0.026834518
116	0x3cedce9e	0.029029187
117	0x3c0ffd14	0.008788366
118	0xbc85122b	-0.016244015
119	0x3c5cd018	0.013477348
120	0x3c935de4	0.017989106
121	0xbca7eaae	-0.020497646
122	0x3ce9231e	0.028459128
123	0x3c3e0570	0.011597976
124	0xbc5ebeb2	-0.01359527
125	0xbd0d230d	-0.034457255
126	0x3c28f170	0.010311469
127	0xbcc52c2a	-0.02406891

Const_21 f4 [128]
0	0xbb17f260	-0.0023185238
1	0xb9ead040	-0.00044787116
2	0xbc5e28e8	-0.0135595575
3	0xbb519b28	-0.003198335
4	0xbc97be69	-0.018523412
5	0x3b544dd0	0.0032395013
6	0x3b4e12d8	0.0031444337
7	0x3c8aa1a6	0.016922783
8	0x3c869e36	0.016432863
9	0x3bcea434	0.0063061956
10	0xbb3a4ed0	-0.0028428324
11	0x3ba1b2f0	0.004934661
12	0xbbcb06ec	-0.0061958935
13	0xbc4f365f	-0.01264724
14	0x3bbd3b34	0.00577488
15	0xbaa04110	-0.0012226421
16	0xbb7bd4d0	-0.0038426407
17	0xbcafee92	-0.021476064
18	0xbcb0b24e	-0.021569397
19	0x3bc0ec78	0.0058875643
20	0xbc9180e8	-0.017761663
21	0x3ca07b68	0.019590095
22	0xbb8aa2ec	-0.0042308476
23	0xbbc26fc0	-0.005933732
24	0xbc785fa4	-0.015159521
25	0x3c41f2e8	0.0118376985
26	0xbc1f28fd	-0.009714362
27	0xbb8e4ff8	-0.004343029
28	0xbbae7758	-0.0053242855
29	0x3c5d48d8	0.013506137
30	0xbbb1fe58	-0.0054319315
31	0x3c608c38	0.013705306
32	0xbcacb909	-0.021084325
33	0xbc8557c5	-0.016277203
34	0x3caf51bc	0.021401279
35	0xbca70c44	-0.02039159
36	0x3b8071dc	0.003919823
37	0xbc30b0ea	-0.010784367
38	0xbc90ee23	-0.017691677
39	0xbcb9f7a5	-0.022701094
40	0xbb6e68c8	-0.0036378372
41	0x3ca950bc	0.02066838
42	0xbbf84ea0	-0.007577732
43	0x3c198ed4	0.009372432
44	0x3cb930dc	0.022606306
45	0xbb1c5a30	-0.0023857467
46	0xba50b400	-0.00079613924
47	0xbca6af92	-0.02034739
48	0x3cb6bd84	0.022307165
49	0x3c501d1c	0.012702253
50	0x3bc5354c	0.0060183164
51	0xbc8f4a84	-0.017491587
52	0xbc6d2360	-0.014473766
53	0xbc5bdbb5	-0.013419081
54	0xb9bd1400	-0.0003606379
55	0x3c572c30	0.013133094
56	0x3c768508	0.015046366
57	0x3928ab00	0.00016085431
58	0xbc3ca7ed	-0.011514646
59	0xbc1ae11f	-0.009453087
60	0xbb81d054	-0.003961602
61	0xbc9c585a	-0.019085098
62	0x3a0cae40	0.00053665414
63	0x3c7a1d44	0.0152657665
64	0x3c76609c	0.015037682
65	0xbcb5a438	-0.022173032
66	0x3c9c31a0	0.019066632
67	0x3bf38ffc	0.0074329358
68	0x3c810786	0.015750658
69	0xbc8e74ae	-0.017389622
70	0xbca14a12	-0.01968864
71	0xbcb43063	-0.021995729
72	0xb9a4c980	-0.00031430647
73	0xbc384703	-0.011247399
74	0x3c39cb9c	0.011340048
75	0x3bb4d0a8	0.005518038
76	0xbc295c9c	-0.010337021
77	0x3c6eb9e0	0.014570683
78	0xbca2910b	-0.019844553
79	0xbb0947b8	-0.0020947289
80	0xbc04686a	-0.008081535
81	0xbc9a9f13	-0.01887468
82	0xbba3e72c	-0.005001923
83	0xbc8ca356	-0.017167728
84	0xbbd036c8	-0.0063541867
85	0xba56fd60	-0.0008201208
86	0xbbbe1a08	-0.005801443
87	0x3c7defe0	0.015499085
88	0xbbe589d8	-0.0070049576
89	0xbc5a97e3	-0.013341877
90	0xbc32d1c6	-0.010914272
91	0x3ab04190	0.0013447274
92	0xbc19efdd	-0.009395567
93	0x3c2e6860	0.010645002
94	0x3be0a1e0	0.0068552345
95	0x3c541610	0.012944713
96	0x3c744a68	0.014910318
97	0xbc3f8730	-0.011689946
98	0xba0a8300	-0.0005283803
99	0xbc955f74	-0.018233992
100	0x3c9e1a10	0.019299537
101	0xbc0583df	-0.008149116
102	0xbbec76e4	-0.0072163213
103	0x3c788870	0.015169248
104	0xbc68d331	-0.014210508
105	0x3c0f6f68	0.008754589
106	0x3c9bde48	0.01902689
107	0x3ae17cb0	0.0017203297
108	0xbaaf92f0	-0.0013395231
109	0xbc76526b	-0.015034298
110	0x3c294630	0.010331675
111	0x3b8d319c	0.0043088924
112	0x3c9d80b6	0.019226413
113	0x3c9b5a2e	0.0189639
114	0xbc86ca1b	-0.016453793
115	0x3bc58d48	0.006028805
116	0xbca00e95	-0.019538203
117	0xbca23a03	-0.019803053
118	0xbcad5097	-0.021156592
119	0x3cab99de	0.020947393
120	0x3cac1b20	0.021009028
121	0xbb79ecb8	-0.003813548
122	0xbcb01c61	-0.021497907
123	0xbc045b33	-0.008078384
124	0xbc16979a	-0.009191418
125	0xb8aecf00	-8.335523e-05
126	0xbcadf0f0	-0.021233052
127	0xbaeee5e0	-0.0018226467

convolution_3 f4 [1, 1, 1, 128]
0	0x3c253a40	0.010084689
1	0xbd761504	-0.060078636
2	0xbce15422	-0.027505938
3	0xbd8ce018	-0.0687868
4	0x3d5cefca	0.05393962
5	0x3d621e4e	0.055204682
6	0xbb3b6540	-0.0028594285
7	0xbd885ba0	-0.06658101
8	0x3cc3dc8c	0.023908876
9	0x3d8c07a1	0.068373926
10	0x3ccb4430	0.024812788
11	0x3d86b4fd	0.065774895
12	0x3d94e499	0.07270164
13	0x3bf297b0	0.0074033365
14	0x3d9700fd	0.073732354
15	0xbd3704ce	-0.044682316
16	0xbd69e652	-0.057104416
17	0x3d713dea	0.058896936
18	0x3b9c4fa0	0.004770234
19	0xbc4c1e08	-0.012458332
20	0x3d9ea4fd	0.07746313
21	0x3d8f5363	0.06998327
22	0x3cdc0ec0	0.026862502
23	0x3d9f1c4d	0.0776907
24	0x3d8d5c5b	0.06902381
25	0x3d5d183e	0.053978197
26	0x3c827a34	0.015927412
27	0xbda93180	-0.082613945
28	0xbdafff90	-0.085936666
29	0xbd4e1496	-0.0503126
30	0xbcbbf8f0	-0.022945851
31	0xbda71b0e	-0.08159457
32	0xbd672fda	-0.05644212
33	0xbd199be9	-0.037502203
34	0x3c8a2f74	0.01686833
35	0x3d8e6b3f	0.06954049
36	0xbc430988	-0.011904128
37	0x3d4a26f2	0.049353547
38	0x3d9314a9	0.07181675
39	0x3c126b58	0.008936726
40	0xbcb7e6fc	-0.02244901
41	0x3d205766	0.03914585
42	0xbd2e1a5d	-0.04250561
43	0x3c1cc9d8	0.009569608
44	0x3d11c396	0.035586916
45	0xbd81c148	-0.063356936
46	0x3ca04ff4	0.019569375
47	0x3b980af0	0.0046399757
48	0x3d0a50c8	0.033768445
49	0xbcc8e2b0	-0.024522156
50	0xbd5c6e59	-0.053816173
51	0x3c9bff40	0.019042611
52	0xbda3043a	-0.079597905
53	0xbdb175cc	-0.08665046
54	0x3cb7b810	0.022426635
55	0x3d9b70f3	0.07589903
56	0x3c832f0c	0.016013645
57	0xbd215065	-0.03938331
58	0x3bce4040	0.0062942803
59	0x3cd67c30	0.026182264
60	0x3cab9738	0.02094613
61	0xbd889b22	-0.06670214
62	0x3cb82958	0.022480652
63	0x3d80ec5f	0.06295084
64	0x3d847f83	0.064696334
65	0xbcb85368	-0.022500709
66	0xbd4fc05f	-0.05072057
67	0xbc2ce5e0	-0.010552853
68	0x3d2534fa	0.040333726
69	0x3da27555	0.079325356
70	0x3d5d6372	0.054049917
71	0x3da2eb95	0.0795509
72	0x3d8cca05	0.0687447
73	0x3d0c9aaa	0.034327187
74	0x3d236c02	0.039897926
75	0xbdb13c6f	-0.08654105
76	0xbbf33d00	-0.0074230433
77	0x3d6e6bfe	0.058208458
78	0x3d9f5965	0.077807225
79	0xbbc2b340	-0.0059417784
80	0xbd8fa5c6	-0.07014041
81	0x3d0a180c	0.03371434
82	0xbc3d0600	-0.011537075
83	0xbca45698	-0.020060822
84	0x3d74e5ae	0.059789352
85	0x3cefe100	0.029282093
86	0x3d7f4296	0.06231936
87	0xbd217026	-0.039413594
88	0xbd87ae52	-0.06625046
89	0x3d9bea97	0.07613104
90	0x3c9fd708	0.019511715
91	0x3d43ff7e	0.04785108
92	0x3d1c49e6	0.038156413
93	0x3c293b68	0.010329105
94	0x3d27459e	0.040837876
95	0x3da41a89	0.08012874
96	0x3ca46004	0.020065315
97	0x3cec567c	0.028849833
98	0x3cfcf7ac	0.030879818
99	0xbd48d4a1	-0.049030904
100	0xbc045c28	-0.008078612
101	0x3cd73ef0	0.026275128
102	0x3d1b3512	0.03789241
103	0xbb69c680	-0.0035671294
104	0xbc197568	-0.009366371
105	0xbd3c5ffc	-0.045989975
106	0x3d82e89f	0.06392025
107	0xbc18a190	-0.009315863
108	0x3a082680	0.0005193725
109	0x3daf037b	0.08545586
110	0x3d87868f	0.06617462
111	0xbd406887	-0.046974685
112	0xbd68bd75	-0.056821305
113	0x3c4b69b8	0.012415342
114	0xbd88388c	-0.066514105
115	0xbd8e3704	-0.06944087
116	0x3c338f90	0.010959521
117	0x3b6069a0	0.0034242645
118	0xbd8176d3	-0.06321492
119	0xbd1ea02b	-0.038726967
120	0x3d26d286	0.040728115
121	0x3d8b316d	0.067965366
122	0xbd8e6cd0	-0.06954348
123	0x3da9388d	0.08262739
124	0x3bdd8c50	0.0067611113
125	0xbd17df70	-0.03707832
126	0xbbe6aa20	-0.0070393234
127	0xbd17f5fd	-0.037099827

convolution_2 f4 [128]
0	0x00000000	0.0
1	0x00000000	0.0
2	0x00000000	0.0
3	0x00000000	0.0
4	0x00000000	0.0
5	0x00000000	0.0
6	0x00000000	0.0
7	0x00000000	0.0
8	0x00000000	0.0
9	0x00000000	0.0
10	0x00000000	0.0
11	0x00000000	0.0
12	0x00000000	0.0
13	0x00000000	0.0
14	0x00000000	0.0
15	0x00000000	0.0
16	0x00000000	0.0
17	0x00000000	0.0
18	0x00000000	0.0
19	0x00000000	0.0
20	0x00000000	0.0
21	0x00000000	0.0
22	0x00000000	0.0
23	0x00000000	0.0
24	0x00000000	0.0
25	0x00000000	0.0
26	0x00000000	0.0
27	0x00000000	0.0
28	0x00000000	0.0
29	0x00000000	0.0
30	0x00000000	0.0
31	0x00000000	0.0
32	0x00000000	0.0
33	0x00000000	0.0
34	0x00000000	0.0
35	0x00000000	0.0
36	0x00000000	0.0
37	0x00000000	0.0
38	0x00000000	0.0
39	0x00000000	0.0
40	0x00000000	0.0
41	0x00000000	0.0
42	0x00000000	0.0
43	0x00000000	0.0
44	0x00000000	0.0
45	0x00000000	0.0
46	0x00000000	0.0
47	0x00000000	0.0
48	0x00000000	0.0
49	0x00000000	0.0
50	0x00000000	0.0
51	0x00000000	0.0
52	0x00000000	0.0
53	0x00000000	0.0
54	0x00000000	0.0
55	0x00000000	0.0
56	0x00000000	0.0
57	0x00000000	0.0
58	0x00000000	0.0
59	0x00000000	0.0
60	0x00000000	0.0
61	0x00000000	0.0
62	0x00000000	0.0
63	0x00000000	0.0
64	0x00000000	0.0
65	0x00000000	0.0
66	0x00000000	0.0
67	0x00000000	0.0
68	0x00000000	0.0
69	0x00000000	0.0
70	0x00000000	0.0
71	0x00000000	0.0
72	0x00000000	0.0
73	0x00000000	0.0
74	0x00000000	0.0
75	0x00000000	0.0
76	0x00000000	0.0
77	0x00000000	0.0
78	0x00000000	0.0
79	0x00000000	0.0
80	0x00000000	0.0
81	0x00000000	0.0
82	0x00000000	0.0
83	0x00000000	0.0
84	0x00000000	0.0
85	0x00000000	0.0
86	0x00000000	0.0
87	0x00000000	0.0
88	0x00000000	0.0
89	0x00000000	0.0
90	0x00000000	0.0
91	0x00000000	0.0
92	0x00000000	0.0
93	0x00000000	0.0
94	0x00000000	0.0
95	0x00000000	0.0
96	0x00000000	0.0
97	0x00000000	0.0
98	0x00000000	0.0
99	0x00000000	0.0
100	0x00000000	0.0
101	0x00000000	0.0
102	0x00000000	0.0
103	0x00000000	0.0
104	0x00000000	0.0
105	0x00000000	0.0
106	0x00000000	0.0
107	0x00000000	0.0
108	0x00000000	0.0
109	0x00000000	0.0
110	0x00000000	0.0
111	0x00000000	0.0
112	0x00000000	0.0
113	0x00000000	0.0
114	0x00000000	0.0
115	0x00000000	0.0
116	0x00000000	0.0
117	0x00000000	0.0
118	0x00000000	0.0
119	0x00000000	0.0
120	0x00000000	0.0
121	0x00000000	0.0
122	0x00000000	0.0
123	0x00000000	0.0
124	0x00000000	0.0
125	0x00000000	0.0
126	0x00000000	0.0
127	0x00000000	0.0

convolution f4 [64]
0	0x00000000	0.0
1	0x00000000	0.0
2	0x00000000	0.0
3	0x00000000	0.0
4	0x00000000	0.0
5	0x00000000	0.0
6	0x00000000	0.0
7	0x00000000	0.0
8	0x00000000	0.0
9	0x00000000	0.0
10	0x00000000	0.0
11	0x00000000	0.0
12	0x00000000	0.0
13	0x00000000	0.0
14	0x00000000	0.0
15	0x00000000	0.0
16	0x00000000	0.0
17	0x00000000	0.0
18	0x00000000	0.0
19	0x00000000	0.0
20	0x00000000	0.0
21	0x00000000	0.0
22	0x00000000	0.0
23	0x00000000	0.0
24	0x00000000	0.0
25	0x00000000	0.0
26	0x00000000	0.0
27	0x00000000	0.0
28	0x00000000	0.0
29	0x00000000	0.0
30	0x00000000	0.0
31	0x00000000	0.0
32	0x00000000	0.0
33	0x00000000	0.0
34	0x00000000	0.0
35	0x00000000	0.0
36	0x00000000	0.0
37	0x00000000	0.0
38	0x00000000	0.0
39	0x00000000	0.0
40	0x00000000	0.0
41	0x00000000	0.0
42	0x00000000	0.0
43	0x00000000	0.0
44	0x00000000	0.0
45	0x00000000	0.0
46	0x00000000	0.0
47	0x00000000	0.0
48	0x00000000	0.0
49	0x00000000	0.0
50	0x00000000	0.0
51	0x00000000	0.0
52	0x00000000	0.0
53	0x00000000	0.0
54	0x00000000	0.0
55	0x00000000	0.0
56	0x00000000	0.0
57	0x00000000	0.0
58	0x00000000	0.0
59	0x00000000	0.0
60	0x00000000	0.0
61	0x00000000	0.0
62	0x00000000	0.0
63	0x00000000	0.0

convolution1 i1 [64, 1, 11, 32]
0	0x66	102
1	0x9d	-99
2	0x4f	79
3	0xbe	-66
4	0xbd	-67
5	0xb2	-78
6	0xc5	-59
7	0x60	96
8	0xad	-83
9	0xdc	-36
10	0x26	38
11	0xdd	-35
12	0x9c	-100
13	0xbd	-67
14	0xb6	-74
15	0x70	112
16	0x49	73
17	0xf8	-8
18	0xab	-85
19	0x7d	125
20	0xb7	-73
21	0x89	-119
22	0x77	119
23	0x19	25
24	0xeb	-21
25	0x2a	42
26	0xe8	-24
27	0x68	104
28	0x6f	111
29	0xeb	-21
30	0x2a	42
31	0x9d	-99
32	0x48	72
33	0x56	86
34	0x06	6
35	0xb9	-71
36	0x33	51
37	0x8c	-116
38	0xa3	-93
39	0x93	-109
40	0xd5	-43
41	0x36	54
42	0xdd	-35
43	0x45	69
44	0xaa	-86
45	0xb3	-77
46	0x1f	31
47	0x23	35
48	0x2a	42
49	0x7a	122
50	0xe2	-30
51	0x0c	12
52	0x6d	109
53	0x8d	-115
54	0x06	6
55	0xb9	-71
56	0xf2	-14
57	0x4e	78
58	0xfb	-5
59	0xf9	-7
60	0x51	81
61	0xae	-82
62	0x8f	-113
63	0x96	-106
64	0x78	120
65	0x0d	13
66	0x99	-103
67	0xfa	-6
68	0x3b	59
69	0xff	-1
70	0x30	48
71	0xc5	-59
72	0xbe	-66
73	0x8d	-115
74	0xba	-70
75	0x2e	46
76	0x4e	78
77	0x39	57
78	0xc8	-56
79	0x3a	58
80	0x33	51
81	0x29	41
82	0xf0	-16
83	0x54	84
84	0x40	64
85	0x02	2
86	0xa9	-87
87	0x53	83
88	0xe3	-29
89	0x0a	10
90	0x9c	-100
91	0x7b	123
92	0xc2	-62
93	0x5d	93
94	0x56	86
95	0x2d	45
96	0xfc	-4
97	0xd0	-48
98	0xba	-70
99	0x4f	79
100	0xf8	-8
101	0x8e	-114
102	0x5f	95
103	0xab	-85
104	0x40	64
105	0x2e	46
106	0x91	-111
107	0x93	-109
108	0x0f	15
109	0x55	85
110	0x76	118
111	0x5b	91
112	0x18	24
113	0x86	-122
114	0xf2	-14
115	0xc1	-63
116	0xe1	-31
117	0xbe	-66
118	0x9e	-98
119	0x89	-119
120	0xde	-34
121	0x17	23
122	0xc2	-62
123	0xb3	-77
124	0x63	99
125	0x4c	76
126	0xec	-20
127	0x64	100
128	0xd9	-39
129	0x09	9
130	0xab	-85
131	0x4a	74
132	0x23	35
133	0xeb	-21
134	0x4f	79
135	0xe6	-26
136	0xd1	-47
137	0x07	7
138	0x18	24
139	0xdc	-36
140	0x5b	91
141	0xac	-84
142	0x09	9
143	0x49	73
144	0xe7	-25
145	0xd5	-43
146	0x57	87
147	0x8b	-117
148	0x52	82
149	0x3f	63
150	0x33	51
151	0x72	114
152	0xb0	-80
153	0x1d	29
154	0xae	-82
155	0x2f	47
156	0x96	-106
157	0xfb	-5
158	0x79	121
159	0x45	69
160	0xee	-18
161	0x48	72
162	0xad	-83
163	0x0c	12
164	0xd3	-45
165	0xb7	-73
166	0x06	6
167	0x51	81
168	0x0d	13
169	0xc4	-60
170	0xc5	-59
171	0xb1	-79
172	0x12	18
173	0x06	6
174	0x31	49
175	0x6f	111
176	0x43	67
177	0x35	53
178	0x05	5
179	0xbe	-66
180	0x04	4
181	0x8d	-115
182	0x41	65
183	0x97	-105
184	0x21	33
185	0x17	23
186	0x07	7
187	0x9c	-100
188	0x3b	59
189	0xd8	-40
190	0xac	-84
191	0x4e	78
192	0xf3	-13
193	0x7b	123
194	0x4e	78
195	0xff	-1
196	0xf8	-8
197	0x6c	108
198	0xe7	-25
199	0x1f	31
200	0x49	73
201	0xd8	-40
202	0x74	116
203	0x5c	92
204	0xa1	-95
205	0x3c	60
206	0xf0	-16
207	0xf1	-15
208	0xb8	-72
209	0x51	81
210	0xd9	-39
211	0x1b	27
212	0x87	-121
213	0x92	-110
214	0x74	116
215	0x61	97
216	0x58	88
217	0xf7	-9
218	0xba	-70
219	0xb7	-73
220	0x38	56
221	0xae	-82
222	0xcf	-49
223	0x1b	27
224	0xe5	-27
225	0x34	52
226	0xcb	-53
227	0x48	72
228	0x1b	27
229	0xbd	-67
230	0xb4	-76
231	0x46	70
232	0x10	16
233	0x6c	108
234	0xee	-18
235	0x88	-120
236	0x6a	106
237	0x85	-123
238	0xf1	-15
239	0x0c	12
240	0x48	72
241	0x0c	12
242	0x5c	92
243	0x78	120
244	0xb6	-74
245	0x28	40
246	0x70	112
247	0x6f	111
248	0x7e	126
249	0x6d	109
250	0xd9	-39
251	0x50	80
252	0xe8	-24
253	0x45	69
254	0xac	-84
255	0x32	50

convolution_1 i1 [128, 1, 13, 64]
0	0x57	87
1	0x0a	10
2	0x84	-124
3	0x45	69
4	0x6c	108
5	0x61	97
6	0xc7	-57
7	0xb4	-76
8	0x72	114
9	0x8b	-117
10	0x95	-107
11	0x53	83
12	0x81	-127
13	0xda	-38
14	0xb2	-78
15	0xc2	-62
16	0x6f	111
17	0x4c	76
18	0x67	103
19	0x10	16
20	0x09	9
21	0x57	87
22	0x95	-107
23	0x07	7
24	0xba	-70
25	0x8e	-114
26	0xb2	-78
27	0xf3	-13
28	0xfb	-5
29	0x7f	127
30	0x0b	11
31	0x61	97
32	0x71	113
33	0x57	87
34	0x3a	58
35	0x6d	109
36	0xe5	-27
37	0x1e	30
38	0x96	-106
39	0xb3	-77
40	0xe7	-25
41	0x98	-104
42	0xbd	-67
43	0xb7	-73
44	0x74	116
45	0x2a	42
46	0xca	-54
47	0xdf	-33
48	0x34	52
49	0x48	72
50	0xcd	-51
51	0xb5	-75
52	0xaa	-86
53	0x52	82
54	0x10	16
55	0xee	-18
56	0xd1	-47
57	0x5a	90
58	0xe6	-26
59	0x38	56
60	0x05	5
61	0x88	-120
62	0x72	114
63	0x5e	94
64	0x2a	42
65	0x0e	14
66	0xe4	-28
67	0x20	32
68	0x86	-122
69	0x81	-127
70	0x2b	43
71	0x91	-111
72	0xeb	-21
73	0x90	-112
74	0xca	-54
75	0x6c	108
76	0x9e	-98
77	0xfa	-6
78	0xb2	-78
79	0xc8	-56
80	0xa1	-95
81	0xad	-83
82	0x60	96
83	0xe9	-23
84	0xa4	-92
85	0x5c	92
86	0x9a	-102
87	0x6c	108
88	0x86	-122
89	0xee	-18
90	0x40	64
91	0x30	48
92	0xd6	-42
93	0x19	25
94	0x73	115
95	0x7c	124
96	0x38	56
97	0x83	-125
98	0x4d	77
99	0xfe	-2
100	0x76	118
101	0xa3	-93
102	0x03	3
103	0x5a	90
104	0x55	85
105	0xc1	-63
106	0x60	96
107	0x5b	91
108	0xdc	-36
109	0x87	-121
110	0xfb	-5
111	0x45	69
112	0x94	-108
113	0x71	113
114	0xb9	-71
115	0xb2	-78
116	0x0e	14
117	0x9d	-99
118	0x1d	29
119	0x65	101
120	0xcf	-49
121	0x9b	-101
122	0x6c	108
123	0x7e	126
124	0x0f	15
125	0x2d	45
126	0xdf	-33
127	0xa1	-95
128	0x59	89
129	0x0c	12
130	0x01	1
131	0x7d	125
132	0x8a	-118
133	0x35	53
134	0x19	25
135	0xa0	-96
136	0x28	40
137	0xf4	-12
138	0xba	-70
139	0xa3	-93
140	0x23	35
141	0x3b	59
142	0x85	-123
143	0xe6	-26
144	0xd5	-43
145	0xdd	-35
146	0x14	20
147	0x86	-122
148	0x8a	-118
149	0xc2	-62
150	0x4c	76
151	0x4a	74
152	0x3d	61
153	0x74	116
154	0x1c	28
155	0xb5	-75
156	0x24	36
157	0x62	98
158	0xa2	-94
159	0xb0	-80
160	0x20	32
161	0x24	36
162	0xd5	-43
163	0xf6	-10
164	0xc7	-57
165	0xcc	-52
166	0x73	115
167	0x21	33
168	0xfe	-2
169	0xf1	-15
170	0x0e	14
171	0x5f	95
172	0x21	33
173	0xc8	-56
174	0x49	73
175	0xc9	-55
176	0x90	-112
177	0x9b	-101
178	0x72	114
179	0x5e	94
180	0x26	38
181	0x4c	76
182	0xa0	-96
183	0xeb	-21
184	0x88	-120
185	0x76	118
186	0x90	-112
187	0xff	-1
188	0x55	85
189	0x5e	94
190	0xdd	-35
191	0x20	32
192	0xcb	-53
193	0x54	84
194	0x65	101
195	0x66	102
196	0x3c	60
197	0x7e	126
198	0xee	-18
199	0x05	5
200	0x2b	43
201	0xfc	-4
202	0x24	36
203	0xd3	-45
204	0xfb	-5
205	0x72	114
206	0x81	-127
207	0x54	84
208	0x52	82
209	0x20	32
210	0x44	68
211	0x60	96
212	0x22	34
213	0x1a	26
214	0x91	-111
215	0x40	64
216	0x1e	30
217	0x21	33
218	0x28	40
219	0x91	-111
220	0xda	-38
221	0x54	84
222	0x34	52
223	0xa3	-93
224	0x67	103
225	0x84	-124
226	0x89	-119
227	0x52	82
228	0x0c	12
229	0x7b	123
230	0xcb	-53
231	0xd2	-46
232	0xed	-19
233	0x10	16
234	0x57	87
235	0xac	-84
236	0xec	-20
237	0xf7	-9
238	0x5f	95
239	0x29	41
240	0xc2	-62
241	0xc9	-55
242	0x36	54
243	0x19	25
244	0x8a	-118
245	0x21	33
246	0x13	19
247	0xa6	-90
248	0x28	40
249	0xaf	-81
250	0x4b	75
251	0xf1	-15
252	0xa7	-89
253	0x76	118
254	0x6a	106
255	0x06	6

convolution_21 i1 [128, 1, 15, 128]
0	0x48	72
1	0x3c	60
2	0x28	40
3	0xd4	-44
4	0xee	-18
5	0x89	-119
6	0xf6	-10
7	0x8d	-115
8	0x99	-103
9	0x5d	93
10	0x1d	29
11	0x32	50
12	0x76	118
13	0x3b	59
14	0x79	121
15	0xd1	-47
16	0x4e	78
17	0x1e	30
18	0xcf	-49
19	0x6b	107
20	0xc8	-56
21	0xd3	-45
22	0x81	-127
23	0x09	9
24	0x24	36
25	0xda	-38
26	0xd6	-42
27	0x39	57
28	0x8b	-117
29	0x6b	107
30	0x74	116
31	0x37	55
32	0x6b	107
33	0x11	17
34	0x69	105
35	0x34	52
36	0x47	71
37	0x35	53
38	0xd2	-46
39	0x91	-111
40	0xb7	-73
41	0x05	5
42	0xac	-84
43	0x12	18
44	0x61	97
45	0xfe	-2
46	0xfb	-5
47	0xc1	-63
48	0xd9	-39
49	0x91	-111
50	0xdf	-33
51	0x54	84
52	0xa4	-92
53	0xdd	-35
54	0x9b	-101
55	0x8c	-116
56	0x87	-121
57	0x6f	111
58	0x63	99
59	0xf3	-13
60	0xdf	-33
61	0x7e	126
62	0x9d	-99
63	0x13	19
64	0x41	65
65	0x91	-111
66	0x9a	-102
67	0x7d	125
68	0x05	5
69	0xc3	-61
70	0xdb	-37
71	0x85	-123
72	0xda	-38
73	0x33	51
74	0x42	66
75	0x0d	13
76	0x59	89
77	0x34	52
78	0x49	73
79	0xe3	-29
80	0x86	-122
81	0x70	112
82	0xf0	-16
83	0x87	-121
84	0x53	83
85	0x91	-111
86	0x54	84
87	0x4e	78
88	0x4f	79
89	0x98	-104
90	0x55	85
91	0x9f	-97
92	0x15	21
93	0x40	64
94	0x28	40
95	0xfc	-4
96	0xbf	-65
97	0x13	19
98	0xe6	-26
99	0x11	17
100	0x1b	27
101	0xf6	-10
102	0x52	82
103	0x8f	-113
104	0x5b	91
105	0xa0	-96
106	0x82	-126
107	0x6b	107
108	0xa2	-94
109	0xd3	-45
110	0x24	36
111	0x20	32
112	0xb4	-76
113	0x93	-109
114	0x73	115
115	0xd9	-39
116	0x6a	106
117	0x36	54
118	0xff	-1
119	0x48	72
120	0x3e	62
121	0x50	80
122	0xbf	-65
123	0x03	3
124	0xe0	-32
125	0x16	22
126	0x0f	15
127	0x8b	-117
128	0xea	-22
129	0x16	22
130	0xaf	-81
131	0x47	71
132	0x26	38
133	0x2f	47
134	0xda	-38
135	0x8d	-115
136	0xea	-22
137	0x17	23
138	0x5e	94
139	0x5a	90
140	0x6e	110
141	0xa1	-95
142	0xea	-22
143	0xa2	-94
144	0xc7	-57
145	0x5b	91
146	0x78	120
147	0xfd	-3
148	0x6f	111
149	0x7c	124
150	0x91	-111
151	0xaa	-86
152	0x85	-123
153	0x28	40
154	0xd3	-45
155	0xd7	-41
156	0x54	84
157	0x3c	60
158	0x65	101
159	0x76	118
160	0xc5	-59
161	0x29	41
162	0x73	115
163	0x74	116
164	0x2b	43
165	0xd7	-41
166	0xaf	-81
167	0xfa	-6
168	0xa1	-95
169	0x93	-109
170	0xb7	-73
171	0x93	-109
172	0x57	87
173	0x38	56
174	0x6a	106
175	0x23	35
176	0x79	121
177	0x8a	-118
178	0x89	-119
179	0x09	9
180	0x1f	31
181	0x06	6
182	0xe0	-32
183	0x9c	-100
184	0x39	57
185	0x41	65
186	0xd2	-46
187	0xd1	-47
188	0x5e	94
189	0xe1	-31
190	0x15	21
191	0x4a	74
192	0x1d	29
193	0x6c	108
194	0x0f	15
195	0x2e	46
196	0xf4	-12
197	0xc0	-64
198	0xb6	-74
199	0x6c	108
200	0x85	-123
201	0x0b	11
202	0xa6	-90
203	0xf2	-14
204	0x44	68
205	0x39	57
206	0x08	8
207	0x52	82
208	0x91	-111
209	0x25	37
210	0x14	20
211	0xeb	-21
212	0x69	105
213	0x18	24
214	0x15	21
215	0x6d	109
216	0x8c	-116
217	0x90	-112
218	0x4d	77
219	0x4c	76
220	0xd4	-44
221	0x81	-127
222	0x9c	-100
223	0x54	84
224	0x69	105
225	0x90	-112
226	0x38	56
227	0x69	105
228	0x69	105
229	0x68	104
230	0x3b	59
231	0x8a	-118
232	0xe7	-25
233	0xd0	-48
234	0x2f	47
235	0x70	112
236	0xc4	-60
237	0x55	85
238	0xe9	-23
239	0xcd	-51
240	0xf9	-7
241	0x90	-112
242	0xad	-83
243	0x30	48
244	0x5d	93
245	0xb6	-74
246	0x8a	-118
247	0x25	37
248	0x6e	110
249	0xc6	-58
250	0x87	-121
251	0x5c	92
252	0x6e	110
253	0x96	-106
254	0x0f	15
255	0xe9	-23
