app/src/main/assets/sgvad_mfcc.tflite (tflite, 185276 bytes, 7 tensors)

Const_6 f4 [32]
000000 06 21 e5 bd 6c a6 d4 3d f8 17 c2 bc 0c fd d9 3d
       -0.11187939 0.10383305 -0.02369307 0.10643968
000010 08 11 1b 3e f0 e8 2e 3d 2c 60 91 3d 68 26 b2 bd
       0.15143216 0.042702615 0.070984215 -0.08698732
000020 33 a5 81 bd 80 7d 5a bc 88 42 81 bd bc e3 6b 3d
       -0.063303374 -0.013335586 -0.06311518 0.05759023
000030 2e 65 83 bd b0 df 06 3c a4 f5 2d bd cc e6 5c bd
       -0.06415783 0.008232042 -0.04247059 -0.053931043
000040 7e b3 a4 3d 4c b8 04 3e c0 49 ea bc 7c f3 c1 3d
       0.08042048 0.12960929 -0.02859962 0.09470269
000050 1e 26 16 3e 8c 98 ea 3d 10 e2 de 3c 64 6e 96 bd
       0.14662978 0.11454877 0.027207404 -0.07345274
000060 c3 49 a5 bd 20 24 22 3e 48 ff c2 3c 78 2a f7 3c
       -0.080707096 0.15834093 0.023803368 0.030171618
000070 90 82 44 3c 48 eb 72 3d 4a 09 8c bd a0 f7 c3 3b
       0.011994019 0.059306413 -0.06837709 0.005980447

Const_4 f4 [64]
000000 7c 80 aa bc c8 81 10 bd a1 a7 b2 bd fc 49 03 bd
       -0.02081322 -0.03528002 -0.08723379 -0.03205298
000010 19 1b b6 bd 37 d8 c8 bd e2 98 98 3d 40 ae 99 3c
       -0.08891887 -0.09806865 0.07451035 0.018759847
000020 e2 a7 86 3d 00 99 9f b9 dc 4f 04 3d 30 2b 8d bb
       0.0657499 -0.00030440837 0.032302722 -0.004308127
000030 79 a6 38 bd c8 37 18 3d e8 4c 18 3d 6e a5 5f bd
       -0.045080636 0.037162572 0.03718272 -0.054601125
000040 78 32 5e 3d 60 58 7e 3d 3c 4f 9d bd 20 e6 89 3d
       0.05424735 0.062096 -0.076811284 0.06733346
000050 be de 9d 3d b4 0b 73 3d cc ad b5 bc 40 15 39 3c
       0.077085 0.059337333 -0.0221776 0.01129657
000060 f8 fc 9b bc 7c db 2e 3d 2c 27 3b 3d a8 17 5d bc
       -0.019041523 0.042689785 0.045691654 -0.01349441
000070 aa 00 c1 3d 54 11 31 bd 68 14 af bd 4a 92 9f 3d
       0.09423955 -0.043229416 -0.08548814 0.07791574
000080 00 b0 8e 3d 28 ea d3 bc e0 c3 64 3b e8 2b 01 bd
       0.06967163 -0.02586849 0.003490679 -0.031536013
000090 08 4d ae bc d0 da d6 bb c7 81 d0 bd 33 09 ab bd
       -0.021276966 -0.006556846 -0.10181003 -0.08351364
0000a0 58 39 16 3c aa 9b 99 3d 30 b9 3f 3c b6 d6 b8 bd
       0.009168945 0.07500394 0.011701867 -0.09025328
0000b0 ea a3 cd 3d 70 9c 28 3c e8 f6 8f 3d f0 a0 f1 bb
       0.1004103 0.010291204 0.070295155 -0.0073739216
0000c0 f4 b9 9f 3c dc 3c 88 3d c0 a0 73 3d c0 25 b6 3a
       0.019497849 0.06652233 0.059479475 0.0013896748
0000d0 24 01 4f 3d 09 44 6e bd bc b0 0b 3d 1a 70 57 bd
       0.050538197 -0.058170352 0.034104094 -0.052597143
0000e0 fc 4e 6a 3d 28 b9 bf 3c 40 e3 26 bc 08 85 84 3c
       0.05720423 0.023403719 -0.010186017 0.016176715
0000f0 c2 49 bf 3d 90 1a 98 3c 2e c9 b0 3d 62 66 08 bd
       0.0934024 0.018567353 0.08632122 -0.033300765

Const_2 f4 [128]
000000 80 64 68 3d 0c 74 6c 3d 3e 90 4f 3d a0 67 41 3b
       0.05673647 0.05772786 0.05067467 0.0029511228
000010 8c 71 76 3d b3 38 82 bd 42 a1 dd bc e0 c6 1c 3c
       0.06016688 -0.06358471 -0.027054433 0.0095689
000020 f4 80 be bc 0b 2b 85 bd 30 19 e9 bb f0 6e f5 3b
       -0.023254849 -0.065023504 -0.0071135983 0.0074900314
000030 64 c7 7b bc d3 5d 1c bd 02 06 88 3d dc 1e 5e bd
       -0.015367363 -0.038175415 0.06641771 -0.05422865
000040 ad 3c 1a bd da a1 35 bd ac 0f d5 3c 38 18 63 bd
       -0.03765552 -0.044343807 0.02600845 -0.05544302
000050 f6 af 82 3d 80 76 f0 bb 73 ae 8b bd f8 7e 38 bd
       0.06381218 -0.007338345 -0.06820383 -0.04504296
000060 de ce 8c 3d c0 e5 5f 3d ed a1 79 bd 16 d7 36 3d
       0.06875394 0.054662466 -0.06094544 0.044638716
000070 60 d5 02 3b 12 e7 3c 3d 00 e1 20 bd 50 43 cf 3b
       0.0019963607 0.046118803 -0.039277077 0.006325163
000080 72 7f 8d 3d 48 f1 81 bc c8 d2 1a 3d e4 94 64 3d
       0.06909074 -0.015862122 0.037798673 0.055806056
000090 44 8b 0b 3d 5e 9d 4c 3d 6e 74 14 3d e0 5e f2 3c
       0.03406836 0.049954765 0.03624385 0.029586256
0000a0 3e 4f 0a 3d c6 9d a5 bc 4a 36 31 3d 63 8d 6e bd
       0.033766977 -0.020216834 0.043264665 -0.058240306
0000b0 8a b0 51 bd 08 e7 5f 3d 6c 1c 53 bc 60 03 72 bd
       -0.05119375 0.054663688 -0.012885194 -0.05908525
0000c0 f8 c6 c9 3c ac aa d6 bc f6 40 a2 bc a0 37 d6 bb
       0.024631009 -0.02620443 -0.019806366 -0.0065373927
0000d0 70 3c a3 bb 74 c6 b6 3c 98 7a 81 3c 00 e8 40 3b
       -0.00498157 0.022311427 0.015805528 0.0029435158
0000e0 23 8c 91 bd 5c 6c 04 3d a8 50 4c bd a0 d0 12 3b
       -0.07106807 0.032329902 -0.049881607 0.0022402182
0000f0 3a 0f 54 bd 94 37 26 bc 16 b0 89 bd a0 16 54 bc
       -0.051772334 -0.010145087 -0.06723039 -0.012944847
000100 be fd 6d bd e8 e5 61 3c 24 3a be bc 94 57 92 bd
       -0.058103316 0.013787724 -0.023221083 -0.071456105
000110 2c 90 0b 3d 48 49 ae 3c ea 92 40 3d 5c 83 c2 bc
       0.03407304 0.021275178 0.04701511 -0.023744278
000120 a6 0b 35 3d b8 d4 09 3c c4 36 98 3c d0 86 8c bd
       0.044200562 0.0084125325 0.018580802 -0.06861651
000130 0c 99 f2 bc bc 67 0a bd dc f7 b0 3c bd 24 04 bd
       -0.029613994 -0.033790335 0.021602564 -0.0322616
000140 4c 48 01 bd f2 3d 8c bc 60 9e f6 bb 75 b5 46 bd
       -0.03156309 -0.017119382 -0.007526204 -0.048512895
000150 c8 ac 14 bc 67 09 86 bd 80 c8 d2 3b a6 67 49 3d
       -0.009074397 -0.06544762 0.006432593 0.049171112
000160 5a 88 54 bd 12 f3 85 3d 90 16 8a bc 92 d0 ff bc
       -0.051887847 0.065405026 -0.016856462 -0.031227384
000170 50 5d a8 3c 90 45 31 bd 86 d3 90 bc 96 66 16 bd
       0.020552307 -0.04327923 -0.017678987 -0.036718927
000180 a0 a2 7c 3d 0f 29 6a bd ec 25 47 3d a8 fa c4 bc
       0.06167853 -0.057168063 0.04862015 -0.024045303
000190 5e fe bb bc 3e 3d 44 bd 7b 91 2e bd 57 10 8e bd
       -0.02294844 -0.047909968 -0.04261921 -0.0693671
0001a0 38 5c 65 3d 60 33 0d 3d f4 b4 b7 bc e0 a4 0c 3b
       0.05599615 0.034472823 -0.022425152 0.0021460578
0001b0 6b 7b 92 bd 58 18 7a 3d 4e 78 c6 bc 00 70 b7 37
       -0.07152446 0.061058372 -0.024227288 2.1867454e-05
0001c0 30 77 0e bc 32 0c 8c 3d de f2 b8 bc 90 f5 70 3d
       -0.008695409 0.068382636 -0.022576746 0.058827937
0001d0 9c 49 80 3d a4 2a 81 3d 6c 7d 6f 3d f4 6b 2e 3d
       0.0626404 0.06306961 0.05846922 0.04258342
0001e0 f8 8a 6a 3d 82 f3 19 bd aa fc 55 bd 50 b7 fd 3c
       0.057261437 -0.037585743 -0.052242912 0.0309712
0001f0 ba 0f 2c 3d f4 20 50 bc 13 b3 5e bd 34 a1 43 3d
       0.042007186 -0.012703169 -0.054369997 0.047761157

convolution f4 [32, 1, 3, 13]
000000 1e 58 8d bd 70 f6 df 3d 18 e6 70 bd 00 72 30 3a
       -0.06901573 0.10935676 -0.058813184 0.00067308545
000010 86 af 1a 3e ce ae 5b bd 52 37 9f bd 00 77 7e 3a
       0.1510602 -0.053633504 -0.077742234 0.00097070634
000020 04 b5 cf 3d 8a db af 3d f2 04 03 3e 2a 22 e3 bd
       0.10141948 0.08586796 0.12794855 -0.11090501
000030 f0 fa 67 bc eb 39 a9 bd f0 41 69 3c c8 21 db bc
       -0.014158949 -0.08263 0.014236912 -0.026749507
000040 6a 3f 5b bd 98 0a c2 3c fc 4a c9 3d b0 7d 53 3d
       -0.053527273 0.023686692 0.09828755 0.051633537
000050 76 0d 12 be 42 53 ac 3d 6e 5c ef bd 24 9b 9b bd
       -0.14262947 0.08414318 -0.116875514 -0.0759795
000060 8c 58 15 be 18 3e a5 bd e8 e3 59 3d 50 f5 27 bc
       -0.14584559 -0.08068484 0.053195864 -0.010251358
000070 f6 6d e1 bd c4 ea cf 3d 60 51 2b bd 68 a9 e6 bc
       -0.110073015 0.101522 -0.041825652 -0.028156951
000080 c0 54 b7 bb 80 8b ca ba b8 66 e7 bd bb 18 9c bd
       -0.00559482 -0.0015452951 -0.11298889 -0.076219045
000090 f2 65 0e be 58 4f 85 3c 98 da a8 3d ee ac ea bd
       -0.13906077 0.016273186 0.082448184 -0.11458765
0000a0 ec 72 96 bd 56 17 0a 3e c5 16 e0 bd 6d 3c a6 bd
       -0.07346138 0.13485464 -0.10941843 -0.08116994
0000b0 b4 aa f1 bd 36 81 13 3e 30 f1 37 3c 50 ec ff 3c
       -0.11800137 0.14404759 0.011226937 0.031240612
0000c0 28 33 9e bc 5e 72 a4 3d d0 f0 77 bc 28 73 ad 3d
       -0.019311503 0.08029626 -0.015133098 0.0846923
0000d0 d7 d5 a6 bd 0c 11 e6 3d 00 8c 58 ba 84 bb 06 3d
       -0.081462555 0.1123372 -0.0008260608 0.032893673
0000e0 16 e7 1e 3e 44 67 fb bd 8c ba ac bd 76 29 a8 3d
       0.1551784 -0.12275556 -0.084340185 0.08211033
0000f0 12 62 18 3e a8 cb 7e 3d 51 ea bf bd 20 e9 2f 3d
       0.14881161 0.06220594 -0.09370864 0.042946935
000100 90 9e 79 bc 00 c3 ae 3d d8 8d 0d be c0 55 2f bc
       -0.015235558 0.08533287 -0.1382364 -0.010701597
000110 ac d6 86 3d 08 d4 96 bd 4a e0 84 3d 80 0a 15 3d
       0.06583914 -0.073646605 0.06488092 0.036386967
000120 50 f4 87 3d 08 fd f2 bc 70 f3 52 bd da d0 a9 bd
       0.06638396 -0.02966167 -0.05150169 -0.082917884
000130 18 14 10 be 68 de 08 bd 0a 64 66 bd ea 92 17 be
       -0.14070165 -0.033415228 -0.05624775 -0.14802137
000140 2e 24 3b bd ba 64 0c 3e b4 5c 00 3d 02 92 03 3e
       -0.0456888 0.13710299 0.03133841 0.12848666
000150 5c 1e 23 3e 60 b4 e3 3b 71 55 cc bd 38 58 cf bd
       0.1592955 0.0069489926 -0.09977234 -0.10124248
000160 5f a4 c9 bd a4 b2 20 3e c8 29 b3 3c 5a 21 e5 bd
       -0.098458044 0.15693146 0.021870509 -0.11188002
000170 d3 8b 96 bd e0 64 f5 3b 60 5c 39 bc a8 bf b8 bc
       -0.07350888 0.007488832 -0.011313528 -0.022552326
000180 62 b5 ba bd 68 57 92 bc cf 0a 96 bd 12 0d 20 bd
       -0.09116627 -0.017863944 -0.0732628 -0.039074965
000190 e0 86 12 be 02 df 01 be 48 59 8f 3c 20 85 7f 3d
       -0.14309263 -0.12682727 0.017498627 0.062382817
0001a0 88 a1 62 3d 9c 76 e1 3d a8 de 0c 3e f8 5b 2b 3d
       0.05532983 0.11008951 0.13756812 0.041835755
0001b0 50 6d c3 3c 2e fe aa bd 12 01 17 3e ba ce bf bd
       0.023855835 -0.08349262 0.14746502 -0.09365602
0001c0 e6 0b 8f 3d 70 6f 68 3d 22 3a 0b 3e f8 ab 0d be
       0.06984691 0.0567469 0.13596395 -0.13835132
0001d0 46 ba 01 be da 74 a0 3d a0 a0 b9 3c e3 0a 00 be
       -0.12668714 0.07834788 0.0226596 -0.12504153
0001e0 5c c8 02 3d e0 b0 fc bb e4 0a 51 3d b8 c0 c6 bd
       0.03192936 -0.007711515 0.051035777 -0.09704727
0001f0 24 23 4d 3d d4 fe c9 3d 2c 5e db 3d 18 6c e0 3d
       0.05008234 0.09863058 0.10711321 0.10958117
000200 02 0c b8 3d e0 86 f9 3c 00 9a 18 bc dc 46 e1 3d
       0.08986665 0.030459821 -0.00931406 0.109998435
000210 e0 a0 db 3c 88 78 1e 3d fc f7 c3 3d f4 22 f8 bd
       0.02681011 0.038689166 0.09568784 -0.12116042
000220 60 38 11 bc 6e 7f cb bd b8 e5 97 bd 2c 74 ea 3d
       -0.0088635385 -0.09936415 -0.07416862 0.11447939
000230 00 02 de 3a ac 79 13 3e f4 cc ae bd 7d df 01 be
       0.0016937852 0.14401883 -0.085351855 -0.1268291
000240 f0 eb b4 3c ae ec 8d 3d 84 c3 01 be 3b fe d7 bd
       0.02208516 0.06929909 -0.1267224 -0.105465375
000250 f0 27 b0 bd e8 46 a4 bd e4 24 87 3d 62 40 60 bd
       -0.086013675 -0.08021337 0.06598833 -0.0547489
000260 f4 40 23 3d d8 b3 9b 3c d5 11 8b bd c6 ab 03 3e
       0.039856866 0.019006655 -0.067905106 0.12858495
000270 20 bc 10 3c 48 f2 1c 3e fb af 85 bd 62 ba 17 be
       0.008833915 0.15326798 -0.06527706 -0.14817193
000280 f0 ca d3 bd d6 a7 1d 3e e0 95 9c bb 84 97 5a 3d
       -0.10341442 0.15396056 -0.0047786087 0.053367153
000290 03 0c 82 bd 0a 46 35 bd 92 02 a2 bd b0 2a a0 3c
       -0.06349947 -0.044256248 -0.079106465 0.019551605
0002a0 5e 41 16 3e e0 b1 60 bc c8 2e 6b bd 33 33 1a be
       0.14673373 -0.013714284 -0.05741766 -0.15058593
0002b0 f4 6f 5f 3d 72 a6 1d 3e ea 4f 70 bd 58 0e cb 3d
       0.054550126 0.15395525 -0.058669962 0.09914845
0002c0 f0 72 39 3c 98 1d cf 3c 38 3f e4 bd f0 f8 03 3d
       0.011318907 0.025282666 -0.111448705 0.032219827
0002d0 54 b5 05 be f6 9a 15 3e 46 18 12 3e ac ad 19 3d
       -0.13057452 0.14609894 0.14267072 0.037519142
0002e0 00 fc 60 ba f4 36 eb 3d 5c 7d dc 3d 3f be 1f be
       -0.0008582473 0.11485091 0.10766098 -0.15599917
0002f0 5c ae 82 3d 44 19 2e 3d c3 04 c7 bd b4 6e 8b 3d
       0.06380913 0.042504564 -0.09717705 0.06808224
000300 3f 38 c7 bd 18 be e6 bd d8 0d a9 3c fc 56 62 3d
       -0.09727525 -0.11266726 0.020636484 0.055258736
000310 10 f9 36 bc fa dc fe bd b0 56 2c 3d 74 2c 11 be
       -0.01116778 -0.12444492 0.04207486 -0.14177114
000320 38 e3 cf bd c2 5b e9 bd d0 1b 0f bd 18 de c5 3d
       -0.101507604 -0.113944545 -0.034938633 0.09661502
000330 a6 76 21 3e 36 94 ce bd b0 53 b0 bc 5a 98 1e bd
       0.15767917 -0.10086863 -0.02152428 -0.038719513
000340 24 84 e4 3d c0 f7 b9 3d 02 1f 93 3d c0 85 af 3b
       0.11158016 0.09080458 0.07183649 0.0053565204
000350 e0 90 13 be 80 d0 eb ba d8 22 22 3e 35 f4 c1 bd
       -0.14410734 -0.0017991215 0.15833604 -0.09470407
000360 c8 cf 09 bd 35 40 23 be 2a 2d 46 bd 34 b0 94 3d
       -0.03364542 -0.15942462 -0.048382916 0.072601706
000370 6c 0d c0 3d ea 62 6d bd 64 e0 6c bd 94 c0 19 3e
       0.0937756 -0.05795566 -0.057831183 0.15014869
000380 3e 71 02 be 00 4b f7 ba 05 87 fd bd 22 2c aa bd
       -0.12738511 -0.0018866956 -0.123792686 -0.08309199
000390 c4 88 ef 3d 44 de a0 3d ef f7 0e be 9f 90 b0 bd
       0.11696008 0.07854894 -0.13961767 -0.08621334
0003a0 ec 6e c7 3d ac 9b fd 3d df d0 23 be 8c 11 fb 3d
       0.097379535 0.12383208 -0.15997647 0.12259206
0003b0 ba ba 14 3e dc bd 5b 3d c8 8a ec 3c 06 41 20 3e
       0.14524356 0.05364786 0.02887477 0.15649804
0003c0 fa f5 a6 bd bc 46 ac 3d 5e f0 1d 3e 30 5b f9 bd
       -0.08152385 0.08411929 0.15423724 -0.12175596
0003d0 80 eb 6d bd 9a 8d 13 3e 4c 51 d7 3d 08 10 04 be
       -0.05808592 0.14409485 0.10513553 -0.1289674
0003e0 e6 71 10 be c9 bf af bd 64 0a 19 3e 53 66 90 bd
       -0.14105949 -0.08581502 0.1494537 -0.07050767
0003f0 d6 00 86 3d 60 37 d2 bb 98 ed 2a 3d 82 53 b3 bd
       0.06543128 -0.0064152926 0.041730493 -0.08756162

convolution_1 f4 [64, 1, 3, 32]
000000 60 f1 3c bd ce b9 b2 3d a0 23 f5 bb 58 7b 33 3d
       -0.04612863 0.08726846 -0.0074810535 0.0438188
000010 e1 59 52 bd 00 fc 18 bd 10 f8 0e 3d 74 15 cd bc
       -0.051355246 -0.0373497 0.03490454 -0.025034644
000020 c0 ee ac 3c 8c 27 31 3d 4c de 17 3d 26 ab c7 bd
       0.021109939 0.043250605 0.037077233 -0.09749441
000030 a0 06 33 3d 30 19 c6 3d 8e 78 8a 3d b4 65 c8 3d
       0.04370749 0.09672773 0.06761275 0.09785023
000040 d2 a5 a2 3d 80 10 c2 3d f8 47 98 3d c8 d9 b2 bd
       0.07941784 0.094758034 0.07435602 -0.08732945
000050 a0 e5 00 bd 80 6e cb bc 48 00 1e 3c 5d 28 49 bd
       -0.031468987 -0.024832964 0.009643622 -0.04911076
000060 64 08 8a bd b8 88 24 3d 00 f7 33 3d 50 6a 34 bc
       -0.06739882 0.040169448 0.04393673 -0.011011675
000070 e5 3f 98 bd e0 25 e7 bc 39 e1 a3 bd 38 49 22 3d
       -0.07434062 -0.028216302 -0.08001942 0.039620608
000080 10 a7 14 3d 44 50 0f bd dc 86 27 3d 2a 15 c2 3d
       0.036292136 -0.034988657 0.040900096 0.09476693
000090 70 e9 6e bd 5c b9 97 bc 46 4f 9a bd e0 2f 26 bd
       -0.058328092 -0.018521003 -0.075346515 -0.040573
0000a0 ac b4 bd bd 8e 0a c7 bd 06 8a cb 3d be f1 8c bd
       -0.09262976 -0.0971881 0.09938435 -0.06882046
0000b0 48 ed b9 bc fa c5 03 bd d8 05 17 3c 28 e2 3d 3d
       -0.022696152 -0.032171227 0.009217702 0.046358258
0000c0 c8 37 17 bc b0 78 1e 3d 2e 29 b7 bd 0f 41 c0 bd
       -0.009229608 0.038689315 -0.08943401 -0.09387409
0000d0 5f fb 8e bd 64 03 b0 bc d8 91 15 3d 3e 12 98 3d
       -0.06981539 -0.021485992 0.03651604 0.074253544
0000e0 10 dd 9b 3d 10 22 80 bb 40 83 07 bb bc 75 37 3d
       0.07610524 -0.0039103106 -0.0020677596 0.044790015
0000f0 8a 6d a6 3d 08 b7 64 3c cc cd 8b bd fa 17 10 bd
       0.08126362 0.013959654 -0.06826362 -0.035179116
000100 a8 ee 4b 3d 58 e5 c1 3d 0c 79 88 bc e6 79 cf 3d
       0.049788147 0.09467572 -0.016659282 0.10130672
000110 b8 39 8e 3d a8 80 3b 3c 40 f6 ec 3b de 4c 93 bd
       0.06944603 0.011444248 0.0072315037 -0.07192396
000120 4e 64 c0 bd 58 83 57 3c 94 4b b8 3c 58 1f e2 3c
       -0.093941316 0.013153873 0.022496976 0.027602836
000130 9a 1f bf 3d 40 7f 65 3d 00 f2 26 b9 6c d4 69 3d
       0.093321994 0.05602956 -0.00015921146 0.057087347
000140 80 1c 83 3a aa 82 16 bd f0 13 0a bc 38 b3 fb 3c
       0.0010003 -0.036745705 -0.008427605 0.030725107
000150 e0 01 80 bb 00 0f ad bc c6 bf 94 bd 9a aa 47 bd
       -0.0039064735 -0.021125317 -0.072631404 -0.048746683
000160 48 87 af 3c 24 f9 92 bc f2 a0 10 bd c0 89 11 3d
       0.021426812 -0.017941065 -0.03530974 0.03553176
000170 ae 5e 9f 3d fc a4 6e 3d e0 17 eb 3c 52 0b 6b bd
       0.077817306 0.05826281 0.028697908 -0.057383843
000180 78 75 e6 bc 04 a4 88 bc 38 f3 67 3d ac 3c 2d 3d
       -0.028132185 -0.016679771 0.056628436 0.04229419
000190 d4 04 2b 3d d0 fd a6 3b a0 da f3 bc 3a 4b b7 bd
       0.04175265 0.005096175 -0.029767334 -0.08949895
0001a0 c8 fb 49 3d ef fa cf bd c0 da b6 3b 68 bb 15 3c
       0.049312383 -0.10155284 0.0055802763 0.009138919
0001b0 d1 21 c8 bd cc 09 e5 bc 68 6f 3a bc 0a f1 ba 3d
       -0.09772075 -0.027958773 -0.0113791 0.09128006
0001c0 55 ae be bd cc 3a 01 bd 74 74 bc 3d 20 33 39 3b
       -0.09310595 -0.031550214 0.09201899 0.0028259233
0001d0 90 a9 ce bc 90 8d 3a 3d 38 6e b7 3c c8 b9 78 3c
       -0.025227338 0.04554516 0.022391424 0.015181012
0001e0 e4 ab 90 3d 4c fc c8 bc 32 46 c8 bd 6e 6f 67 bd
       0.070640355 -0.024534367 -0.09779014 -0.056502752
0001f0 a0 af 07 bd 0e 36 bd bd 60 88 17 3c ac 46 9e bd
       -0.033126473 -0.09238826 0.009248823 -0.07728323
000200 a8 82 aa bc 51 77 3e bd 44 8e 2a 3d 60 d8 2f 3b
       -0.020814255 -0.046500508 0.04163958 0.002683185
000210 9c ac 63 3d 80 16 b7 3d 7a 70 80 bd 70 71 6d 3d
       0.055584535 0.089398384 -0.06271453 0.05796951
000220 8f 7d 38 bd fa ce d0 3d 70 45 ee 3c ec e7 84 bc
       -0.045041617 0.10195728 0.029085845 -0.01622387
000230 90 37 7b 3d 96 e8 9d bd 06 91 80 bd 34 de 1a 3d
       0.061332285 -0.07710378 -0.06277661 0.037809566
000240 14 76 b0 bd 70 ce c7 3d 0c 1a 98 bd dc ed 00 3d
       -0.086162716 0.09756172 -0.07426843 0.03147684
000250 ac c5 9f 3d 40 5f c8 3a f8 75 dd 3c 14 6d 35 3d
       0.07801375 0.0015287176 0.027033791 0.044293478
000260 bc d0 87 bd b0 0f b7 3d 98 41 df 3c 00 1b 10 ba
       -0.0663161 0.08938539 0.027252957 -0.00054971874
000270 b0 1e 36 3d 30 2f 0d bc 94 90 6b 3d 50 a1 ce 3c
       0.04446286 -0.008617207 0.057510927 0.025223404
000280 f8 70 e5 3c 98 e1 b8 3d 65 05 bc bd a0 72 78 bd
       0.02800797 0.090274036 -0.091807164 -0.06065619
000290 80 98 0a 3c 80 25 4e 3d 6e d2 03 bd 22 15 b1 3d
       0.00845921 0.05032873 -0.032183103 0.08646609
0002a0 a8 51 6c 3d 88 07 f4 bc 8c ac 85 3c 36 a3 a8 bd
       0.05769506 -0.029788747 0.016317628 -0.08234255
0002b0 00 a8 c5 b9 50 50 a1 bd 90 37 96 3b 20 e8 a8 bd
       -0.00037699938 -0.078766465 0.0045842603 -0.08247399
0002c0 ac cf 8b bd ce b9 0e bd b0 d4 53 bc 10 97 a9 3b
       -0.0682672 -0.034845166 -0.012929127 0.0051754788
0002d0 61 f6 72 bd f0 b3 53 bc 72 95 12 bd e4 5d 62 3d
       -0.059316996 -0.012921318 -0.035787053 0.055265322
0002e0 84 14 2b 3d c0 2a b4 bb ba 56 89 bd 80 b0 d3 3c
       0.041767612 -0.0054982603 -0.06705995 0.025840998
0002f0 ce 06 a1 bd 10 6e 87 3d 78 df da 3c 60 39 52 bc
       -0.07862626 0.0661279 0.026717886 -0.012831062
000300 ac 17 cd bd 3d 77 9c bd a8 cd c7 bc 96 2c 8b 3d
       -0.10014281 -0.076399304 -0.024390057 0.067956135
000310 0b 49 9c bd c0 10 3f bc 66 3a 1a bd 28 86 7e bc
       -0.07631119 -0.011661708 -0.03765335 -0.015534915
000320 48 00 8a 3d 82 53 ba bd 80 4e 4f 3b 2f 86 57 bd
       0.06738335 -0.09097959 0.0031632483 -0.0526182
000330 a2 79 c6 bd f4 88 98 bc b2 16 8c 3d 08 ec 98 bc
       -0.09691168 -0.018619992 0.06840266 -0.018667236
000340 2e bf 97 3d 85 ae 66 bd 80 74 2e 3a 84 ce 55 3d
       0.074095115 -0.05631878 0.0006654933 0.0521989
000350 90 d8 84 bc d2 16 4f bd d2 3e 89 bd cc 4b 58 3d
       -0.016216546 -0.050558873 -0.06701435 0.05280666
000360 43 c4 b3 bd 00 05 f9 bc 7f c3 5c bd b4 19 9b 3d
       -0.08777668 -0.030397892 -0.053897377 0.07573262
000370 24 7c 6f 3d 1a 44 85 3d f0 70 3d 3d 68 ad 30 bc
       0.058468 0.0650713 0.046250284 -0.010783531
000380 f0 a7 4e 3d 7c 7f 4e 3d cc cb 92 bd aa e3 cb bd
       0.050453126 0.050414547 -0.071677774 -0.09955533
000390 bc 48 ca 3d fc 96 0b bd b4 dc c0 3d a0 6e a6 bc
       0.09877154 -0.034079537 0.09417096 -0.020316422
0003a0 18 27 89 3d 7c 9e 24 3d f6 2a 99 bd 50 67 a9 bd
       0.0669691 0.040190205 -0.07478897 -0.082716584
0003b0 b0 f6 f7 bc 7c 5e 56 3d bc fd a0 bc 5e 9d 1c bd
       -0.030268997 0.0523362 -0.01965224 -0.038236015
0003c0 f0 e5 ed 3c e8 af 46 3d 60 41 00 3d de 5c 82 bd
       0.029040307 0.0485076 0.031312346 -0.06365369
0003d0 2a e4 43 bd 20 bf 88 bd fd 62 56 bd 04 80 39 bd
       -0.047825016 -0.06677079 -0.052340496 -0.0452881
0003e0 8a f2 36 bd 14 be 35 3d 7a 0b c2 3d 58 57 ca bc
       -0.044664897 0.044370726 0.09474845 -0.024699852
0003f0 8c dc 0d 3d 18 56 05 bc 5e 8a 93 bd c2 4e 91 3d
       0.034634158 -0.008138202 -0.07204126 0.070951

convolution_2 f4 [128, 1, 3, 64]
000000 20 a6 4b 3b 66 04 fc bc 6c a3 57 bc 76 c0 b6 bc
       0.003107436 -0.030763816 -0.013161521 -0.02230857
000010 b0 f2 bf bb 74 7c f0 3c 10 49 e4 3b 30 b0 ad bb
       -0.005857788 0.029356219 0.0069667175 -0.005300544
000020 59 07 86 bd 52 b9 82 bd 26 d4 1a 3d e8 75 19 bd
       -0.0654437 -0.06383003 0.037799977 -0.03746596
000030 50 bc 88 bb b8 e6 4f bd d4 6c df 3c 3a da 89 bc
       -0.004172839 -0.05075714 0.027273573 -0.016827691
000040 9e ee 34 3d 10 35 07 3d f4 55 1b 3d b7 80 88 bd
       0.044172876 0.03300959 0.03792377 -0.066651754
000050 2e 59 86 bd e4 4e f3 bc c0 26 d2 3b 24 6e 7f 3d
       -0.065599784 -0.029700704 0.0064133108 0.062360898
000060 c6 26 ea bc 32 eb df bc e4 5a fa 3c 5c 47 2b 3d
       -0.028582942 -0.02733383 0.030560918 0.0418161
000070 e0 3b a1 bb ee 40 92 3d 94 44 b7 3c 3e b2 91 3d
       -0.0049204677 0.071412906 0.022371568 0.07114075
000080 98 a7 a1 3c e0 cc 70 3d 84 89 77 3d d8 de bc bc
       0.019733235 0.058789134 0.06043388 -0.023055479
000090 c2 99 8e 3d e2 6c 38 bd 48 d2 27 bd b6 29 13 3d
       0.06962921 -0.045025714 -0.040972024 0.03592845
0000a0 7e ce 71 bd 10 76 83 bd fc 64 ec 3c c6 6a 49 3d
       -0.059034817 -0.06419003 0.028856747 0.049174093
0000b0 65 32 04 bd 2c d4 dd 3c b8 8d 4e 3d e8 4c 71 3c
       -0.032274622 0.02707871 0.050428122 0.014727809
0000c0 c4 c5 3b bd c0 95 86 3b ee 69 73 bd 24 25 d4 3c
       -0.0458429 0.004107207 -0.059427194 0.025896616
0000d0 0a 89 8a 3d ba 1b 2a bd 76 80 85 3d c4 94 9f 3c
       0.067644194 -0.04153035 0.065186426 0.019480117
0000e0 3a ac 08 3d 2c 90 28 bc 6f fe 81 bd 17 35 59 bd
       0.033367373 -0.0102882795 -0.063473575 -0.053029146
0000f0 90 9e d1 bc 30 13 c8 bb 21 b5 2a bd 0c cb 6c 3d
       -0.025588304 -0.006105803 -0.041676644 0.057810828
000100 e0 60 6e 3c 0c ea 9f 3c dc a9 49 bc b0 63 4d bc
       0.014549464 0.019520782 -0.012308564 -0.012535974
000110 00 35 ed 3a 9c 75 90 3d c4 03 73 3d 0f ef 91 bd
       0.001809746 0.07053682 0.059329763 -0.07125675
000120 e7 e0 6b bd 2b 94 81 bd 10 81 90 bd 8b 89 07 bd
       -0.05758753 -0.06327089 -0.07055867 -0.033090156
000130 2c 44 3f bd 30 cf 68 bc b3 40 15 bd 40 1b d4 3a
       -0.046695873 -0.014209554 -0.036438655 0.0016182438
000140 24 fb 8b 3c c0 cb 91 3d fe 8e 0e 3d 4d 0a 7d bd
       0.017087527 0.0711894 0.034804337 -0.0617774
000150 a8 30 de 3c ec 4e 29 bd 28 ac 7c 3d 7c 69 f3 3c
       0.02712281 -0.04133503 0.06168762 0.029713385
000160 ca e8 0c bd 21 42 04 bd 28 a9 0a 3d ca ff 04 3d
       -0.034401692 -0.032289628 0.033852726 0.032470502
000170 14 93 4c bc 14 35 12 3d 82 92 48 bd ff 3a 07 bd
       -0.012486238 0.03569515 -0.048967846 -0.033015247
000180 a4 31 57 3d b3 bc 11 bd e6 5a 8c bd ea 9c 41 bd
       0.052537575 -0.03558035 -0.06853275 -0.047268786
000190 a4 f6 65 bd b7 d5 77 bd b6 d2 7a bd dc 25 8e 3d
       -0.056143418 -0.06050655 -0.061236106 0.06940815
0001a0 d5 c3 0f bd 89 07 4e bd c8 fb 88 3d 18 98 69 3c
       -0.03509887 -0.050300155 0.066886485 0.014257453
0001b0 00 8d d7 b9 78 5d 4e 3d 46 ee 26 3d c8 70 da 3c
       -0.0004111305 0.050382107 0.04075458 0.026665106
0001c0 b0 80 26 bc ae 64 61 bd 60 1c 0c 3c 78 96 a8 bc
       -0.010162517 -0.055027656 0.008551687 -0.020579562
0001d0 a3 1c 1b bd 1c b7 97 3c ea 85 e9 bc cc a2 4b bc
       -0.037869107 0.01851993 -0.028506238 -0.0124289505
0001e0 64 b9 74 bc 63 8c 65 bd 78 0b 04 bd 74 51 0f 3d
       -0.014936779 -0.056042086 -0.0322375 0.03498979
0001f0 90 db a4 3b 80 64 d7 3c d8 32 b0 3c ae 58 c9 bc
       0.0050310567 0.02629304 0.02150862 -0.024578419
000200 28 47 82 3c 01 a3 67 bd 30 ea 44 3c 6a c5 35 bd
       0.01590307 -0.056551937 0.012018725 -0.04437772
000210 b0 e9 86 3b 22 8d d7 bc 40 60 4f 3c 90 b1 fe bb
       0.004117213 -0.026312415 0.012657225 -0.007772632
000220 38 0e 6c 3d 20 43 46 3b c0 fb f5 bb 8c c2 f3 3c
       0.057630748 0.0030252412 -0.0075068176 0.029755853
000230 04 23 8a 3d b8 cf 04 3c e8 82 ef bc cf d4 1b bd
       0.0674496 0.008106165 -0.029237226 -0.038044747
000240 7a 18 aa bc 9e 5f 94 bc b4 88 c9 3c 71 dc 90 bd
       -0.020763624 -0.018112 0.024601318 -0.07073296
000250 b2 79 8e 3d 7c 90 00 bd a8 ef c5 3c 6c 0c 25 bd
       0.06956805 -0.03138779 0.024162129 -0.04029505
000260 80 07 2c bb 80 a1 1c 3a 01 a2 93 bd d8 fe 75 3d
       -0.0026249588 0.0005974993 -0.07208634 0.06005749
000270 26 14 3f 3d a0 ad 93 3d 72 0e 75 bd 4f 0d 8f bd
       0.046650074 0.07210851 -0.05982823 -0.0698496
000280 0c b9 77 bd 18 90 58 bd 48 66 16 3d 28 b4 ff 3c
       -0.06047921 -0.052871794 0.036718637 0.031213835
000290 aa 7d 98 bc 7a 58 8c 3d 08 6e bf 3c 9e 2e ac bc
       -0.018614609 0.06852813 0.023367897 -0.021018323
0002a0 20 b9 f9 bb 12 af 3d bd a8 57 2b bd 40 cb 70 3c
       -0.0076209456 -0.04630954 -0.041831642 0.014696896
0002b0 34 dd 67 3d 2b 14 88 bd 88 1c ed bc 98 3b 2d 3c
       0.05660744 -0.06644472 -0.028944269 0.01057329
0002c0 61 76 76 bd 58 4a 0d 3d 90 b8 9c 3c 04 bd 8c 3d
       -0.06017149 0.034494728 0.019130975 0.06871989
0002d0 2a 41 8f bc 30 d3 3e 3d d0 0d fe 3b be 40 2e 3d
       -0.017487127 0.046588123 0.0077531114 0.04254221
0002e0 ba b9 84 bc 2c 96 2a 3d c4 fb 9e 3c c0 f4 38 3b
       -0.016201843 0.04164712 0.01940716 0.0028222054
0002f0 7a ca 43 3d 1c 1b 78 3d 90 3d be bb a5 fc 0a bd
       0.04780052 0.06057273 -0.0058056787 -0.033932347
000300 f8 64 8a bd 43 15 07 bd 24 cc 19 3d 90 3f 8d bb
       -0.067575395 -0.03297926 0.0375482 -0.0043105558
000310 3c 1f 6c 3d 7c b9 52 bc d0 a6 b1 3b 78 6d 71 3c
       0.057646975 -0.012861606 0.005421497 0.014735572
000320 f8 b2 62 3d 1e 1f 06 bd 0a b7 93 3d f7 42 59 bd
       0.05534646 -0.03274452 0.07212646 -0.05304238
000330 22 ea 1b 3d 40 d5 0e bd ad df 14 bd 11 9d 00 bd
       0.038065083 -0.03487134 -0.036346126 -0.03139979
000340 29 42 0c bd b8 46 bb 3c 3c 41 0e bd cc bc 19 3d
       -0.034242783 0.02286087 -0.03473018 0.037533566
000350 0a 7e 41 3d 78 5d 21 3c 75 5b 32 bd 18 91 83 3c
       0.04723934 0.009848945 -0.04354425 0.016060397
000360 c0 09 ca 3b 48 5e 2f 3c 8a f4 4e bd e4 69 89 3d
       0.006165713 0.010703631 -0.05052618 0.0670965
000370 76 13 02 bd 04 43 d9 3c 30 12 7e 3c fa 30 27 3d
       -0.03175684 0.026521213 0.015507266 0.040818192
000380 24 f5 28 3d b8 62 4c bd d0 ca 19 bd b0 3a db bc
       0.04124941 -0.049898833 -0.037546933 -0.026761383
000390 02 c5 33 3d 26 ea 8a 3d 1e 1b 93 3d a0 b6 cc bc
       0.043889053 0.067829415 0.071829066 -0.024989426
0003a0 7c 11 51 bc bc 75 be 3c be 49 52 3d 00 06 2b 3a
       -0.012760516 0.0232495 0.051339857 0.00065240264
0003b0 e6 3c be bc 9c 4f 3a bd 80 ab 12 3c 3a b9 f0 bc
       -0.023222398 -0.045486078 0.008952022 -0.029385198
0003c0 ca 15 57 3d 84 46 a3 3c e8 3e 1d 3c 5c 4a 05 3d
       0.052511014 0.019931085 0.009597518 0.032541618
0003d0 9d d3 81 bd 00 14 83 3a b4 35 1c 3d be 7d 45 bd
       -0.0633919 0.0010000467 0.038137153 -0.04821562
0003e0 7e 84 3a bd 4a 4d 30 3d 08 87 9a bc b0 ee 78 bd
       -0.04553651 0.04304246 -0.018863216 -0.060774505
0003f0 dd e1 04 bd ec 80 c2 3c b4 fc fc 3c 6c c7 bb 3c
       -0.032441963 0.023743115 0.030882217 0.02292224

MatMul f4 [1, 12800]
000000 0a 99 b7 bb 52 a0 e7 3b 84 cb 7f bb c0 08 6d 39
       -0.0056029605 0.007068672 -0.0039031217 0.00022605341
000010 6b 99 06 3c 19 b6 09 3c 4e 07 e6 3b ca 2e 0f bb
       0.008215289 0.008405232 0.0070199138 -0.0021847957
000020 b8 94 d4 3a d0 82 16 bb 90 b0 13 ba 2c 56 2c 3b
       0.0016218638 -0.0022966154 -0.0005633915 0.002629648
000030 e0 19 fb ba 0e 68 e4 3b 84 fe 50 3b c8 05 e6 3a
       -0.0019157492 0.006970412 0.0031889984 0.001754933
000040 c4 43 bd ba 5e 97 97 bb 9a e3 f6 bb bc c7 a7 3b
       -0.0014439751 -0.0046261987 -0.0075344564 0.0051202457
000050 90 33 cd ba 7b bd f7 bb 8a 93 83 3b 7e cb e6 3b
       -0.0015655626 -0.0075604296 0.0040153908 0.007043301
000060 00 5c 37 b7 03 38 0b bc a2 c8 8a 3b be b1 7f bb
       -1.092907e-05 -0.008497241 0.004235343 -0.0039015855
000070 62 3e 37 bb 00 44 a1 bb 37 3c c9 bb 3f 04 a8 bb
       -0.0027960767 -0.0049214363 -0.0061412114 -0.0051274593
000080 b9 5e 02 bc 66 7f f7 3b f3 e9 0d 3c 7d d8 05 3c
       -0.007957154 0.007553029 0.008661735 0.008169291
000090 e0 dc a5 ba 50 b8 f7 ba 25 ed 08 bc e0 8e e5 ba
       -0.0012654327 -0.0018899534 -0.008357321 -0.0017513894
0000a0 6f a9 a1 bb 15 29 04 3c 56 b1 00 bc 06 2a c3 3b
       -0.004933528 0.008066435 -0.00785478 0.0059559373
0000b0 5a 66 69 bb 0c 00 a7 3b 82 d7 fb bb e4 3e 3d bb
       -0.0035613985 0.005096441 -0.0076856026 -0.0028876597
0000c0 2c f3 35 3b 16 be fa 3b 22 21 8a 3b 1e 98 fd 3b
       0.002776335 0.0076520545 0.0042153755 0.007739081
0000d0 a0 89 38 3b 6d d3 08 3c eb 6e 8f bb 90 7f bc 3b
       0.0028158203 0.008351189 -0.004377236 0.0057525113
0000e0 60 47 aa bb b0 a8 9d 3a 22 15 fc bb 50 ac 39 ba
       -0.005196497 0.0012028422 -0.007692949 -0.00070828665
0000f0 0e e8 f9 3b 00 80 b2 ba 66 93 31 bb c8 71 c8 ba
       0.00762654 -0.0013618469 -0.0027095913 -0.0015292699
000100 3e 21 af 3b d8 6d 6d bb c7 77 00 3c a5 f1 06 3c
       0.005344539 -0.0036228802 0.007841057 0.0082363235
000110 54 c2 9d 3b 60 51 67 ba 3c d1 5c 3b 0a 86 db 3b
       0.0048144255 -0.00088240765 0.003369405 0.0066993283
000120 14 a3 b8 3b 6e 2b 65 bb 0a 80 cd bb 7c f2 5f 3b
       0.005634675 -0.0034968513 -0.006271367 0.0034171632
000130 ad cb ff bb dc 92 e9 bb 84 95 4a 3b 6e aa 42 bb
       -0.0078062625 -0.0071281027 0.0030911872 -0.0029703635
000140 b0 31 15 ba 5e 0f 7c bb 00 9f 55 39 7a f2 38 bb
       -0.0005691303 -0.0038461308 0.00020372495 -0.00282207
000150 40 22 a0 39 ee 3d 50 bb 98 f3 56 3b 80 98 8f 3b
       0.00030543096 -0.0031775194 0.0032799002 0.004382193
000160 60 84 f0 3a ba 0b e5 3b 66 85 7c bb f8 c2 66 3b
       0.0018349998 0.0069899233 -0.003853166 0.0035211425
000170 1e 1c 3d bb 70 eb 4c bb 5b 59 8a bb 13 bc b5 bb
       -0.002885587 -0.0031268261 -0.004222078 -0.005546102
000180 f2 70 dc 3b 93 17 0c 3c e0 57 da bb 36 fc f3 3b
       0.0067273313 0.008550542 -0.0066633075 0.0074458374
000190 e4 44 d6 3b e1 21 83 bb e0 d9 2d 3a 80 01 a0 ba
       0.006538974 -0.0040018414 0.0006631892 -0.0012207478
0001a0 2a 9b c4 bb 10 44 fa 3a 0a b0 f4 3b 20 7d e9 39
       -0.0059999423 0.001909377 0.0074672746 0.00044534449
0001b0 a1 a9 c9 bb 9a f4 95 3b 8d 78 0a 3c d0 1f 44 3b
       -0.0061542545 0.004576278 0.008451593 0.0029926188
0001c0 20 56 9c b9 7a fd ec 3b 0b be 04 3c 84 bd c0 3b
       -0.00029818807 0.007232365 0.00810195 0.005881967
0001d0 20 52 81 39 a4 b8 a4 3b f2 8e ab 3b d6 83 de 3b
       0.00024665985 0.0050268937 0.0052355463 0.0067906184
0001e0 85 1d 0e bc 1c 5b 2b 3b f6 ef 7e bb 5a f9 e6 bb
       -0.00867403 0.0026146835 -0.0038900352 -0.007048768
0001f0 48 95 0c bb cc d6 00 bc 00 18 ac b9 28 54 07 3b
       -0.0021451283 -0.007863712 -0.00032824278 0.0020649526
000200 fe 67 ea bb 53 cf 07 3c 63 c6 ae bb b3 a6 0b 3c
       -0.00715351 0.008289176 -0.005333708 0.008523631
000210 4c 9b 86 3b 06 36 e3 3b a0 e1 a7 39 e0 fe a3 3b
       0.0041078683 0.0069339303 0.00032020826 0.0050047487
000220 2a db 04 bb 12 26 29 bb fc 7b 84 3b 9f 8d 05 3c
       -0.0020272234 -0.0025810045 0.0040431004 0.008151441
000230 d0 f9 90 3a 97 d1 95 bb 56 8a 50 bb be 85 ee 3b
       0.0011060778 -0.004572104 -0.0031820736 0.007279127
000240 72 9c e7 bb 64 b4 2f bb f9 dc 0b bc a4 1c c2 ba
       -0.0070682103 -0.0026810402 -0.008536571 -0.0014809561
000250 0a f6 9a 3b a2 cf 60 bb 44 ed ae 3b 24 25 bc ba
       0.004729037 -0.0034303446 0.005338343 -0.001435433
000260 bc 30 5e 3b f5 9d 0c 3c 20 b8 06 ba 82 04 af bb
       0.003390356 0.008582582 -0.0005139131 -0.0053411135
000270 0c a4 e0 ba 10 94 ca ba 10 0b 3d 3b ec 7f c8 3b
       -0.0017138734 -0.0015455503 0.0028845705 0.006118765
000280 14 a5 c3 ba 3a f9 8f bb d0 82 37 3a d0 9b 4a 3a
       -0.0014926516 -0.004393724 0.00070003886 0.00077289063
000290 26 97 e2 3b 5b 85 10 3c 00 21 af 3b 50 d1 83 3b
       0.006914991 0.008820857 0.00534451 0.0040227547
0002a0 d8 56 92 ba 90 82 0f 3a a8 8b 9d bb c4 7d 31 3b
       -0.0011164797 0.00054744724 -0.004807908 0.0027083019
0002b0 80 90 dd bb 9c 13 10 bb 9b e9 09 3c b6 4d 70 bb
       -0.0067616105 -0.0021984344 0.008417512 -0.0036667413
0002c0 30 b4 d9 3a 36 be fe 3b 00 0e db b9 28 c4 a9 bb
       0.0016609486 0.0077741398 -0.00041781366 -0.0051808544
0002d0 28 78 b7 ba 2e 53 a9 bb 08 40 18 3b 71 86 0a 3c
       -0.0013997601 -0.0051673865 0.0023231525 0.008454905
0002e0 04 a1 8d bb 58 7a af 3a d4 d2 28 3b fc 6a a6 bb
       -0.004322173 0.0013387902 0.002576043 -0.0050786715
0002f0 f6 7a 80 3b ee 24 95 3b 5d 45 03 bc 23 00 05 3c
       0.003920908 0.0045515215 -0.008012143 0.008117708
000300 70 b2 67 ba d8 5c 96 3b 58 52 c9 3a 18 c3 05 3b
       -0.000883854 0.0045887046 0.0015359623 0.0020410474
000310 2e 42 7f bb f6 ba bc 3b 62 0b 88 3b cf 8d 0f 3c
       -0.0038949358 0.005759592 0.0041517476 0.008761837
000320 a8 f2 7d 3b 04 b9 eb bb 79 5f b2 bb 5c ee 09 bc
       0.003874937 -0.0071936864 -0.00544351 -0.008418646
000330 a4 ad d7 bb 50 5f 0a bc 06 dd 83 3b d0 81 4e bb
       -0.006581979 -0.008445576 0.004024151 -0.003151048
000340 c2 5d 69 bb 10 cf 84 3a ec 1b 13 bb 7e 91 c4 3b
       -0.0035608863 0.001013251 -0.0022447063 0.0059987893
000350 00 ae 06 3b 8a 42 1f bb 40 b7 a2 b9 ee 0b 0f bc
       0.002055049 -0.0024301135 -0.0003103558 -0.008730872
000360 34 c8 aa ba d7 47 0d 3c fa ef 0b bb 46 04 c0 bb
       -0.0013029636 0.008623085 -0.0021352754 -0.0058598844
000370 00 ea 1f b9 68 5c 04 bc 98 dc 8b bb 5c 50 ea ba
       -0.00015250593 -0.008078672 -0.00426824 -0.0017876732
000380 3b f1 06 3c e0 8a 90 bb 3f 19 e2 bb 1f 8a fd bb
       0.008236225 -0.0044110864 -0.006899982 -0.0077374126
000390 27 9a 02 3c 1e ea ec bb 04 8d 00 3b d5 ee b0 bb
       0.007971323 -0.0072300574 0.0019615302 -0.0053995647
0003a0 70 18 25 3a e4 28 49 bb 73 af 0b 3c f8 0e 34 3b
       0.0006297892 -0.0030694539 0.008525717 0.0027474742
0003b0 60 91 82 b9 68 a8 e0 3a 98 cb 53 3b 3c 7b f2 bb
       -0.00024903845 0.0017140033 0.0032317396 -0.0073999446
0003c0 7a 10 ad 3b 80 95 76 3b ce 92 fb 3b d4 9a 9b ba
       0.005281505 0.003762573 0.0076774126 -0.0011871704
0003d0 d0 dc 92 3a dd 92 02 3c 30 c0 b0 3a 88 56 00 bc
       0.0011204723 0.007969585 0.0013485011 -0.007833131
0003e0 9e d8 e0 3b d4 b0 8e bb 57 ed ed bb d0 b8 b3 3b
       0.0068617603 -0.0043545756 -0.007260959 0.005484678
0003f0 00 c6 0b b8 6a 00 88 3b 14 f4 21 3b ec b7 59 3b
       -3.3324584e-05 0.00415044 0.0024712132 0.0033221198
